data/data.pth (torch, 16817 bytes, 6 tensors)

l1.weight f4 [8, 272]
0.027011864 0.61449766 0.30834612 0.86377656 0.64620113 0.2124378 0.21949764 -0.3159033
-0.31318277 0.46600342 0.5640993 0.54741377 0.43743214 -0.018896142 0.36085415 0.5484921
0.7447548 0.42548278 0.6368056 -0.06267569 0.16272908 0.32916266 0.33641237 0.28112355
0.4667873 -0.009153493 0.07649914 -0.44705722 0.54473966 0.028209155 0.5152099 -0.4041446
0.85807633 -0.28197092 0.40839326 0.0831633 0.34051767 0.21456349 0.34122413 0.11763518
0.40185207 0.14166081 -0.15428859 0.32166743 -0.24147458 -0.16906084 0.403887 0.15484183
-0.33578494 0.14807549 0.14084688 0.7950828 -0.035766173 -0.1884029 0.039351244 -0.14010343
-0.26969054 0.54399776 -0.36480513 0.21474358 -0.7449382 0.45111194 -0.46913588 0.067568466
0.34075004 0.092119396 -0.5490003 0.5370447 0.58900535 0.5428185 -0.32718503 -0.3157634
-0.36272818 0.34992662 1.0648135 0.32911414 0.18869042 0.4922221 0.4141288 0.39916557
-0.16256964 0.54786205 -0.48775715 -0.20061713 0.26363468 0.08779858 0.2024939 0.04867152
0.17790273 0.39475337 -0.32150292 0.67037725 0.3780037 0.7850644 -0.29621598 0.24219564
0.03231811 0.56988966 -0.48803204 -0.04865373 0.19297788 0.49743912 0.6282775 0.34371012
0.40193775 -0.12606959 0.60510594 0.19726618 -0.30215392 0.59588504 0.20357844 -0.32376152
0.27218592 0.038858343 0.2871327 -0.11060288 0.587514 0.35053274 0.5915055 0.57929546
0.5691957 0.28181735 0.36257058 0.6149367 0.5178624 0.38527718 0.4934489 0.66828716
0.21504584 -0.15789439 0.47864884 -0.39565063 0.17942353 -0.52899694 0.06683617 -0.2595877
-0.5857781 0.43453327 0.87339187 -0.03586467 0.4944799 -0.22952357 0.30003867 -0.2582247
-0.5497746 -0.0001681948 -0.23938619 -0.55507445 0.32597825 0.3051717 -0.15917845 0.21230435
0.5368362 0.5338868 -0.3355051 0.28110737 0.60574555 -0.16853133 0.18921226 0.14594722
0.1739306 0.32408378 -0.26751983 0.48719248 0.059580892 0.07700554 0.9459279 0.07730659
0.041322373 0.30313438 -0.30802375 -0.34174854 0.3280324 0.266618 -0.0735331 -0.15571164
-0.20570934 0.29749104 0.40500546 0.7008514 -0.67777115 0.4396095 0.60413784 0.11503525
0.20380172 0.14450923 -0.15927292 0.22294632 0.122084305 0.16282655 -0.36525574 0.15345584
0.034534324 0.2711587 0.37467027 0.12933676 -0.18961816 0.2849853 0.35810512 0.40550712
0.48461223 -0.29113448 -0.4308185 0.5040003 0.16020627 -0.4045162 0.046568893 0.43288428
0.027076637 -0.14868414 0.35977054 -0.1446552 1.1886127 0.13602765 0.17699675 -0.2031102
-0.5503528 0.32258764 -0.80530894 0.19622232 0.5395324 0.22645977 0.31349036 0.30768767
0.33373693 0.5478569 0.2399823 -0.35719255 -0.28004554 0.34831122 0.2858724 -0.4931095
0.6973086 0.57466435 0.85218155 0.55280894 0.27725324 0.20627935 -0.089760795 0.12814268
0.33901185 0.9245474 0.15174615 0.40080813 0.12293381 -0.12789015 0.3198889 -0.6199095
0.179463 0.557446 0.29547322 -0.23731788 0.21348016 0.3682613 -0.48767838 0.09777547
00000000: fc47 dd3c b84f 1d3f 8bdf 9d3e 7620 5d3f
00000010: 706d 253f 4b89 593e fdc3 603e 14be a1be
00000020: 7e59 a0be 0098 ee3e d068 103f 4f23 0c3f
00000030: 1bf7 df3e 15cc 9abc e0c1 b83e fa69 0c3f
00000040: 40a8 3e3f e1d8 d93e b105 233f 1d5c 80bd
00000050: 74a2 263e 0288 a83e 3e3e ac3e 6def 8f3e
00000060: bffe ee3e 88f8 15bc 95ab 9c3d afe4 e4be
00000070: 0f74 0b3f e316 e73c cce4 033f 0aec cebe
00000080: e4aa 5b3f 7e5e 90be ec18 d13e 8551 aa3d
00000090: 5558 ae3e 88b6 5b3e eeb4 ae3e b7ea f03d
000000a0: 8ebf cd3e 880f 113e d4fd 1dbe 98b1 a43e
000000b0: 1d45 77be 491e 2dbe 47ca ce3e db8e 1e3e
000000c0: 01ec abbe 1aa1 173e 2a3a 103e 8c8a 4b3f
000000d0: 8d7f 12bd b1ec 40be c52e 213d 4677 0fbe
000000e0: e114 8abe 7043 0b3f bdc7 babe bee5 5b3e
000000f0: 45b4 3ebf 25f8 e63e 9432 f0be 5661 8a3d
00000100: ca76 ae3e 18a9 bc3d 498b 0cbf c37b 093f
00000110: 0ec9 163f 27f6 0a3f cc84 a7be beab a1be
00000120: 82b7 b9be 9529 b33e cf4b 883f a681 a83e
00000130: 1038 413e 8904 fc3e b108 d43e 6e5f cc3e
00000140: a878 26be b040 0c3f 4ebb f9be 946e 4dbe
00000150: 20fb 863e becf b33d 905a 4f3e ca5b 473d
00000160: 222c 363e 1d1d ca3e 089c a4be d89d 2b3f
00000170: b389 c13e fbf9 483f 9fa9 97be 2202 783e
00000180: ff5f 043d 4ae4 113f 56df f9be 2249 47bd
00000190: fe9b 453e 57b0 fe3e cbd6 203f c6fa af3e
000001a0: c9ca cd3e 6318 01be 39e8 1a3f 2500 4a3e
000001b0: ebb3 9abe ec8b 183f de76 503e 12c4 a5be
000001c0: f45b 8b3e ed29 1f3d 0f03 933e c383 e2bd
000001d0: 5167 163f 0779 b33e e86c 173f b54c 143f
000001e0: cfb6 113f 5d4a 903e daa2 b93e 7e6c 1d3f
000001f0: a192 043f 0d43 c53e 56a5 fc3e de14 2b3f
00000200: fa34 5c3e 11af 21be 7611 f53e b892 cabe
00000210: cdba 373e 586c 07bf 67e1 883d aee8 84be
00000220: 8ef5 15bf 257b de3e 9c96 5f3f d5e6 12bd
00000230: 782c fd3e 3a08 6bbe ab9e 993e 0736 84be
00000240: 07be 0cbf 735d 30b9 a721 75be 5c19 0ebf
00000250: 9fe6 a63e 773f 9c3e adff 22be 5066 593e
00000260: 196e 093f ceac 083f 53c7 abbe 4eed 8f3e
00000270: 2412 1b3f 7a93 2cbe dcc0 413e 3073 153e
00000280: dd1a 323e 4fee a53e 5cf8 88be 4b71 f93e
00000290: 180b 743d 15b5 9d3d 5528 723f eb52 9e3d
000002a0: a641 293d 6e34 9b3e 4ab5 9dbe aaf9 aebe
000002b0: ddf3 a73e 2882 883e 8698 96bd df72 1fbe
000002c0: 78a5 52be bf50 983e e05c cf3e ff6a 333f
000002d0: 6982 2dbf 7f14 e13e c7a8 1a3f 9a97 eb3d
000002e0: 66b1 503e 3afa 133e 7118 23be 0a4c 643e
000002f0: 5607 fa3d 01bc 263e cd02 bbbe 8723 1d3e
00000300: dd73 0d3d 50d5 8a3e c8d4 bf3e db70 043e
00000310: 432b 42be 98e9 913e 8e59 b73e a19e cf3e
00000320: 181f f83e 940f 95be 3e94 dcbe 2a06 013f
00000330: 1d0d 243e bf1c cfbe 06bf 3e3d 02a3 dd3e
00000340: d3cf dd3c a840 18be d833 b83e 7e20 14be
00000350: 7624 983f d54a 0b3e a33e 353e 1ffc 4fbe
00000360: ece3 0cbf 352a a53e ba28 4ebf 81ee 483e
00000370: cc1e 0a3f 12e5 673e cf81 a03e 3d89 9d3e
00000380: 91df aa3e 5a40 0c3f ecbd 753e f1e1 b6be
00000390: 2162 8fbe d955 b23e de5d 923e d978 fcbe
000003a0: d182 323f 341d 133f 9228 5a3f e384 0d3f
000003b0: 23f4 8d3e e53a 533e 82d4 b7bd d637 033e
000003c0: f692 ad3e 23af 6c3f 5863 1b3e b936 cd3e
000003d0: b9c4 fb3d a3f5 02be 7ac8 a33e 64b2 1ebf
000003e0: 26c5 373e c8b4 0e3f 4448 973e 7503 73be
000003f0: 8b9a 5a3e bf8c bc3e fbb0 f9be 813e c83d

l1.bias f4 [8]
1.365686 0.5619791 0.5916377 0.3384401 0.88103855 0.3769486 0.7391676 0.52103126
00000000: cdce ae3f dddd 0f3f 9175 173f 0548 ad3e
00000010: be8b 613f 68ff c03e 163a 3d3f 4e62 053f

l2.weight f4 [8, 8]
-0.6422052 1.5790075 0.096385255 0.16640417 1.7177578 0.7246796 -0.6127319 0.5609868
1.7533424 -1.5967824 -1.4082023 -0.2355937 -0.39825213 1.5197967 0.9498917 1.1368171
1.1392962 1.8505129 2.1736217 -0.51598424 -0.7553954 -1.0914053 -0.52062166 0.035470072
-0.41733238 0.70172757 1.2230728 0.593658 1.0603185 -0.008389941 2.1756444 0.21739522
1.763449 0.0055883764 0.50984013 -1.5868652 1.0568212 -0.32956022 -0.027539201 -0.89764655
0.13756831 -0.5572002 0.5151077 0.6807473 -0.11606909 1.6982989 -0.07231669 1.4658763
0.5309436 1.1706746 -0.22877954 2.063037 -0.6129059 0.48915493 -1.9457749 1.2941471
0.32519603 1.1385297 -1.0106534 0.8366155 2.0296772 -1.1117686 -1.0512233 0.87262106
00000000: 8f67 24bf eb1c ca3f a265 c53d db65 2a3e
00000010: 7ddf db3f 9a84 393f ffdb 1cbf d59c 0f3f
00000020: 866d e03f 5e63 ccbf f93f b4bf 7a3f 71be
00000030: b4e7 cbbe b388 c23f 1a2c 733f 3983 913f
00000040: 75d4 913f 9bdd ec3f 9e1c 0b40 8b17 04bf
00000050: 9861 41bf 2bb3 8bbf 7647 05bf 1149 113d
00000060: 97ac d5be 6ba4 333f a68d 9c3f f8f9 173f
00000070: 84b8 873f f775 09bc c23d 0b40 da9c 5e3e
00000080: b2b8 e13f b31e b73b e284 023f 661e cbbf
00000090: eb45 873f 1ebc a8be e499 e1bc 2acc 65bf
000000a0: b5de 0c3e aca4 0ebf 19de 033f 7445 2e3f
000000b0: a2b5 edbd dc61 d93f c61a 94bd d6a1 bb3f
000000c0: ebeb 073f aad8 953f 2f45 6abe cc08 0440
000000d0: 67e7 1cbf 8472 fa3e 270f f9bf 9da6 a53f
000000e0: 1880 a63e 57bb 913f 175d 81bf 6f2c 563f
000000f0: 3be6 0140 6f4e 8ebf 7c8e 86bf 1864 5f3f

l2.bias f4 [8]
0.18727916 0.79191345 0.18782535 0.46611038 0.9535113 -0.43039912 0.3630164 0.4503191
00000000: 1cc6 3f3e d7ba 4a3f 4a55 403e 05a6 ee3e
00000010: 5119 743f 465d dcbe 49dd b93e 3a90 e63e

l3.weight f4 [23, 8]
-0.61861557 -1.5516158 0.9523707 -0.56593925 0.54201853 -2.1220183 -0.35109615 -0.38840464
-0.28012887 0.58142954 -1.5131259 0.5215488 -1.6773155 0.12776749 -0.41447142 -0.874907
0.3288049 -0.79246056 -1.8835046 0.13123313 0.069885984 -0.21810287 -1.2022525 0.67441165
0.6545919 -0.5358529 -2.0818932 -0.13236862 -2.4435925 0.3254976 0.3435102 0.11391696
-0.44651017 -1.4274889 0.61009204 -0.6986556 -0.4685813 -0.34011212 0.6242367 0.101432525
-2.311216 0.14909282 0.4205957 -0.4177772 0.5202758 -0.5556436 -0.40483353 -0.5751311
-2.3800654 0.98265517 -1.3147595 -0.2547987 0.0743776 0.1923624 -1.4805124 -1.3466626
-0.06407032 -1.00923 -0.18716161 0.3328466 -0.9352724 0.23775004 -0.39361942 -0.028485034
0.34171686 -1.8347896 -0.514861 -0.27309155 -1.8739191 -0.46179765 0.7446418 0.8155645
-1.0687007 -0.30477557 0.39400208 0.32885027 -1.7657927 0.28111735 0.14482057 -1.6231179
-2.2964852 0.1858721 -0.46264622 0.8059125 0.8839025 -2.042999 -1.3651729 -1.896064
-1.0116042 0.15473151 0.32343856 -1.9862462 0.030356968 -0.3852979 0.82271034 -0.3997127
-1.1840498 0.69688493 -0.40137854 -1.5236932 0.8661432 -1.337266 -0.7750264 0.5436124
-0.2181031 -0.49947256 -0.24735147 -0.3285674 0.46915522 -2.876684 0.23352052 0.47899452
-0.72051954 0.23906924 0.15907049 0.2790453 -0.22152692 -0.028702995 -2.4108808 -0.33117408
-0.9026923 0.81323713 -1.1328623 -2.0890203 -0.78261983 0.4699079 0.62471384 -1.3050995
-0.47563082 0.2559916 -0.4405534 -0.69287175 0.28672677 0.36552227 -0.0022327278 -1.5077459
-0.78927034 0.57543844 -1.5106006 -0.85291576 -1.2087115 0.07854439 0.54344946 0.117101856
0.32356277 -0.12848832 -0.8598939 -0.87281966 -0.5026541 0.29971328 0.15632199 0.11919191
0.19791253 -2.4336555 0.269106 -0.08943499 -0.15801422 -1.0241241 -0.42847985 0.56871945
-0.19994873 -1.6346983 0.7676875 0.10882159 -2.471559 -0.27810004 0.33148926 -0.31373388
-0.24577859 -1.8037509 -0.3251179 0.981797 -0.009187562 -0.95145136 -2.2225335 0.12361256
-2.0526552 -0.48347118 0.8288575 -0.24985647 0.68089396 -0.26451424 -1.8877783 -2.0299163
00000000: 975d 1ebf 599b c6bf 91ce 733f 65e1 10bf
00000010: bac1 0a3f 26cf 07c0 e0c2 b3be f9dc c6be
00000020: 0d6d 8fbe 91d8 143f 1cae c1bf 3984 053f
00000030: 46b2 d6bf 7bd5 023e 9935 d4be e8f9 5fbf
00000040: 1e59 a83e b2de 4abf ae16 f1bf fa61 063e
00000050: 6220 8f3d 5c56 5fbe 69e3 99bf 3ea6 2c3f
00000060: 5693 273f a82d 09bf bd3d 05c0 a48b 07be
00000070: d263 1cc0 9fa7 a63e 92e0 af3e 4c4d e93d
00000080: fb9c e4be f5b7 b6bf fe2e 1c3f 18db 32bf
00000090: e3e9 efbe 2d23 aebe facd 1f3f dbbb cf3d
000000a0: f7ea 13c0 caab 183e 5258 d73e e5e6 d5be
000000b0: cb30 053f a93e 0ebf 5746 cfbe cb3b 13bf
000000c0: fe52 18c0 4a8f 7b3f 0a4a a8bf fa74 82be
000000d0: 4853 983d a6fa 443e 6e81 bdbf 715f acbf
000000e0: 4d37 83bd 732e 81bf 4ba7 3fbe df6a aa3e
000000f0: 036e 6fbf bf74 733e 7c88 c9be 7259 e9bc
00000100: 83f5 ae3e 63da eabf eecd 03bf a8d2 8bbe
00000110: 95dc efbf be70 ecbe d8a0 3e3f d6c8 503f
00000120: 2fcb 88bf 8b0b 9cbe a4ba c93e 105f a83e
00000130: 7f05 e2bf 9dee 8f3e d84b 143e 54c2 cfbf
00000140: 9df9 12c0 4155 3e3e f7df ecbe 4850 4e3f
00000150: 6f47 623f 7fc0 02c0 fcbd aebf 3ab2 f2bf
00000160: 3f7c 81bf f071 1e3e bd99 a53e 513d febf
00000170: 2daf f83c c445 c5be 259d 523f 25a7 ccbe
00000180: f28e 97bf 0d67 323f 7d81 cdbe 6108 c3bf
00000190: 90bb 5d3f 882b abbf 2168 46bf 2f2a 0b3f
000001a0: 6b56 5fbe deba ffbe b449 7dbe fc39 a8be
000001b0: 1d35 f03e 971b 38c0 0120 6f3e c53e f53e
000001c0: f873 38bf 91ce 743e 60e3 223e 07df 8e3e
000001d0: f4d7 62be 8b22 ebbc df4b 1ac0 a68f a9be
000001e0: d816 67bf 4f30 503f a201 91bf 82b2 05c0
000001f0: c659 48bf c597 f03e 3fed 1f3f 800d a7bf
00000200: e285 f3be 5511 833e 3790 e1be 0b60 31bf
00000210: dacd 923e bc25 bb3e f552 12bb d1fd c0bf
00000220: 9f0d 4abf ef4f 133f 5c5b c1bf b058 5abf
00000230: 0fb7 9abf e2db a03d 811f 0b3f 19d3 ef3d
00000240: 05aa a53e 7192 03be 0222 5cbf 1c71 5fbf
00000250: f0ad 00bf 0574 993e df12 203e e31a f43d
00000260: 95a9 4a3e 03c1 1bc0 43c8 893e b129 b7bd
00000270: 7bce 21be 8016 83bf b661 dbbe 9997 113f
00000280: 5cbf 4cbe cb3d d1bf 2b87 443f dbdd de3d
00000290: 062e 1ec0 2163 8ebe f6b8 a93e baa1 a0be
000002a0: 62ad 7bbe 4fe1 e6bf da75 a6be 0c57 7b3f
000002b0: 6e87 16bc 5192 73bf fd3d 0ec0 9528 fd3d
000002c0: b45e 03c0 8989 f7be 0130 543f 60da 7fbe
000002d0: 114f 2e3f 696e 87be b8a2 f1bf 26ea 01c0

l3.bias f4 [23]
0.09105021 0.51794714 0.12198975 0.1819043 0.06776661 0.14846474 -0.23365404 0.045550138
-0.081852525 0.15007402 0.5443062 0.08268607 -0.2110928 0.37263644 -0.09179391 -0.3461624
-0.4378956 -0.028782204 -0.29075354 -0.5377243 -0.10693104 0.114880756 0.051878076
00000000: 8878 ba3d 2f98 043f c3d5 f93d 1f45 3a3e
00000010: 38c9 8a3d 2407 183e 0143 6fbe c892 3a3d
00000020: 4ca2 a7bd 01ad 193e a757 0b3f 5057 a93d
00000030: b628 58be 34ca be3e 72fe bbbd 333c b1be
00000040: da33 e0be a8c8 ebbc a6dd 94be 4da8 09bf
00000050: a9fe dabd 9a46 eb3d 1b7e 543d
