data/data.pth (torch, 16817 bytes, 6 tensors)

l1.weight f4 [8, 272]
0	0xbee3922e	-0.44447464
1	0xbdc0ed91	-0.09420312
2	0x3e332b6c	0.17497033
3	0x3ede7132	0.43445736
4	0x3d734adf	0.059397575
5	0xbb1e8117	-0.002418583
6	0xbe6bce43	-0.23027901
7	0xbd95ac99	-0.07308311
8	0xbdc9a288	-0.098454535
9	0x3d2fd92c	0.04293172
10	0xbe1e2500	-0.15443802
11	0xbd80147e	-0.062539086
12	0x3e3e669b	0.18593828
13	0xbf07f9ee	-0.5311574
14	0xbedae8b9	-0.42755678
15	0xbeebd9ee	-0.46064705
16	0x3eeca853	0.4622217
17	0xbefea7b7	-0.4973733
18	0x3e9a25f9	0.30107096
19	0x3d415614	0.04720123
20	0xbef846a1	-0.48491386
21	0x3ec6390a	0.38715392
22	0x3f3fad8d	0.7487419
23	0xbd3fe3fe	-0.04684829
24	0x3f44dc26	0.7689842
25	0xbde5f05c	-0.112274855
26	0x3ea2c9c4	0.3179456
27	0xbe9da0ce	-0.30786747
28	0x3e9f6a4e	0.31135792
29	0xbd118a27	-0.035532143
30	0xbc51fa8c	-0.012816083
31	0x3ed13e18	0.40867686
32	0x3f0ed512	0.5579387
33	0xbf216505	-0.6304477
34	0x3edd5869	0.43231514
35	0xbdbdf4b7	-0.09275191
36	0x3f06738c	0.5252006
37	0x3e81708e	0.25281185
38	0xbf0b21f7	-0.543487
39	0xbe6cd77f	-0.2312908
40	0x3efc1e0e	0.4924168
41	0xbc921033	-0.01782999
42	0xbe63a179	-0.22229566
43	0x3f1c7752	0.6111957
44	0xbd02974f	-0.03188258
45	0xbd45e744	-0.048316255
46	0x3d384a41	0.04499269
47	0x3d061bcf	0.032741364
48	0xbeda14b6	-0.42593926
49	0xbe53b088	-0.2067281
50	0x3df2b20d	0.11850367
51	0x3ed54b27	0.416589
52	0xbdb54d2a	-0.088526085
53	0x3d4a248d	0.049351264
54	0xbedd5c20	-0.43234348
55	0xbecf6b10	-0.4051137
56	0x3f42917d	0.7600325
57	0x3df6fe03	0.12060168
58	0xbeee4e1d	-0.4654397
59	0x3f068319	0.5254379
60	0xbf7159c7	-0.94277614
61	0x3c0621ef	0.008186801
62	0xbf80c111	-1.0058919
63	0x3e01bc17	0.12669407
64	0x3e91451a	0.28373033
65	0xbedf776d	-0.43645802
66	0xbece227a	-0.4026068
67	0x39834752	0.00025039405
68	0xbe4d2150	-0.20032239
69	0xbf0a5774	-0.5403969
70	0xbf06eae8	-0.5270219
71	0xbe9554b0	-0.29166174
72	0xbeea1959	-0.45722464
73	0x3f2f7445	0.6853679
74	0x3f7b070a	0.98057616
75	0x3ecd5e71	0.40111116
76	0x3f49bdb7	0.78805107
77	0x3f4a74d5	0.7908452
78	0xbc67d5a3	-0.014150056
79	0xbc760ba3	-0.015017423
80	0xbf0b949a	-0.54523623
81	0x3edbb913	0.42914638
82	0xbec7afb1	-0.3900123
83	0xbdd1a2c1	-0.10236121
84	0xbe4a86c0	-0.19777966
85	0x3f1421a6	0.57863843
86	0x3f975280	1.1822052
87	0xbd8dd617	-0.069256
88	0x3f9e7aef	1.2381266
89	0xbf2a6998	-0.66567373
90	0xbedb669c	-0.42851722
91	0x3ee3d273	0.44496498
92	0x3f2101dd	0.6289347
93	0x3f30ed47	0.69112056
94	0x3e9037e3	0.28167638
95	0xbef1e0c7	-0.47241804
96	0x3c669591	0.014073745
97	0x3e036190	0.12830186
98	0x3e691fd5	0.22766049
99	0x3cda928c	0.026681207
100	0xbea6164b	-0.32438883
101	0x3f0b81c7	0.544949
102	0x3d92e18c	0.07171926
103	0x3e721b1f	0.23643158
104	0x3eafbdb2	0.34324414
105	0xbcbea53d	-0.023272151
106	0xbb43b4c4	-0.0029862383
107	0x3db79017	0.0896303
108	0xbedb2029	-0.42797974
109	0xbed9d10d	-0.42542306
110	0x3b8acccb	0.004235839
111	0xbd66d961	-0.056359652
112	0x3e8396ae	0.25700897
113	0xbd0c261d	-0.034216035
114	0x3f20ba6f	0.62784475
115	0xbe71b32f	-0.2360351
116	0xbed9d87a	-0.4254797
117	0xbe039abb	-0.12851994
118	0xbec9cf39	-0.3941591
119	0xbed9e0e1	-0.4255438
120	0xbeda0c6e	-0.42587608
121	0xbd516496	-0.051121317
122	0xbd595dac	-0.053067848
123	0x3ee6cd49	0.45078495
124	0xbeb7f535	-0.35929266
125	0x3d8fa36d	0.07013593
126	0x3e3302dc	0.1748156
127	0x3f6bb184	0.9206774
128	0x3e8591cd	0.260878
129	0xbe73148d	-0.23738308
130	0x3ef38a79	0.47566584
131	0x3e2d837c	0.16944689
132	0xbf0656a0	-0.5247593
133	0xbe9baa8a	-0.30403548
134	0xbd7f6668	-0.06235352
135	0xbe039fe1	-0.12853958
136	0xbe9d1ad0	-0.3068452
137	0x3f0703db	0.5274026
138	0xbf243da3	-0.6415655
139	0xbe0e6850	-0.1390698
140	0x3e72db34	0.23716432
141	0xbe1a5fd4	-0.15075618
142	0xbd7fe728	-0.062476307
143	0x3e9ffb80	0.31246567
144	0x3e18f57b	0.14937393
145	0x3d0c3edd	0.03423964
146	0xbf119729	-0.5687128
147	0xbf77708c	-0.9665611
148	0x3e952c5d	0.2913541
149	0x3de36b72	0.11104478
150	0xbae5c92e	-0.001753127
151	0x3edfdbb4	0.43722308
152	0xbf18a812	-0.59631455
153	0x3ec783a4	0.3896762
154	0xbe4a2891	-0.19742037
155	0xbf056d77	-0.52120155
156	0x3eeeaea1	0.46617606
157	0x3da595f0	0.08085239
158	0xbe0870de	-0.13324305
159	0x3d8a56b0	0.067548156
160	0x3f3783af	0.7168531
161	0x3e3b194f	0.18271373
162	0xbd2d6c0e	-0.042339377
163	0x3ecc80ad	0.39941922
164	0xbda1cbad	-0.07900176
165	0xbdbeaed1	-0.09310687
166	0x3e8cec21	0.27523902
167	0x3cac06a3	0.020999258
168	0xbe8e7e17	-0.27830574
169	0x3ddb722c	0.10715136
170	0x3ec63a1e	0.38716215
171	0x3b9a7a15	0.0047142603
172	0x3e412271	0.18860795
173	0xbe986a1f	-0.29768464
174	0xbeda00db	-0.42578778
175	0x3dae5e5b	0.085140906
176	0x3f1db84e	0.6160935
177	0x3ee09411	0.43862966
178	0x3e6dc728	0.23220503
179	0x3f2a9e97	0.6664824
180	0xbd9a53c2	-0.07535507
181	0x3fc67e93	1.5507377
182	0x3f9579c5	1.1677786
183	0xbddc6bf6	-0.107627794
184	0xbe4b1573	-0.19832401
185	0x3e500eb0	0.20318103
186	0x3f1bd915	0.60878116
187	0xbe574204	-0.21021277
188	0x3e223abe	0.15842721
189	0xbe7209b1	-0.2363651
190	0x3f20de9a	0.62839663
191	0xbd3ac4cb	-0.045597833
192	0x3d8df76e	0.06931959
193	0x3ddaebca	0.106895044
194	0x3e7edf4a	0.24889866
195	0xbe2bb787	-0.16769229
196	0xbdc6336b	-0.09677776
197	0x3d1d6f45	0.038436193
198	0x3f0b389d	0.5438326
199	0x3e32af4b	0.17449681
200	0xbed688ea	-0.41901332
201	0xbd7b27c9	-0.06131724
202	0xbcb524a0	-0.02211219
203	0xbe882b93	-0.26595744
204	0xbe88c591	-0.2671323
205	0xbedcc9f4	-0.43122828
206	0xbe8e576f	-0.27801082
207	0x3e233684	0.15938765
208	0x3f2562cb	0.6460387
209	0xbe02436d	-0.12721033
210	0x3ea4630e	0.32106823
211	0xbe5b4d9d	-0.21416326
212	0x3f9996a0	1.1999092
213	0x3f556982	0.8336412
214	0xbcab3c54	-0.02090279
215	0xbedb7187	-0.42860052
216	0xbe13847f	-0.14406012
217	0x3ef13b7f	0.47115704
218	0xbf97b2b2	-1.1851408
219	0x3dbc170b	0.091840826
220	0x3f1f907c	0.6232984
221	0x3ee88ab3	0.4541832
222	0x3ee31378	0.4435079
223	0xbdfdada4	-0.12386635
224	0xbe1b7bf4	-0.15184003
225	0x3f095e6d	0.5365971
226	0x3e4f3a15	0.20237
227	0xbf1bb0b6	-0.60816514
228	0x3e32a4c7	0.1744567
229	0xbed07cde	-0.40720266
230	0x3e336a77	0.17521082
231	0xbf2df680	-0.67954254
232	0x3e1ca6c4	0.15297991
233	0x3ec694b6	0.38785332
234	0x3ede7733	0.43450317
235	0xbe766715	-0.2406276
236	0x3e7fa6b4	0.24965936
237	0x3f2e14f0	0.680007
238	0xbe4d9c70	-0.20079207
239	0x3f884745	1.064675
240	0x3e9870d2	0.29773575
241	0x3eb63894	0.3559004
242	0xbef42c59	-0.47690085
243	0x3e0a6076	0.1351336
244	0x3d972bbe	0.0738139
245	0x3d509138	0.05091974
246	0x3f031a93	0.51212424
247	0xbf412e0e	-0.754609
248	0x3ef965a4	0.48710358
249	0x3f84961b	1.0358309
250	0x3e5c783e	0.21530244
251	0xbee72ad9	-0.45149878
252	0x3e21c770	0.15798736
253	0xbdfd47f4	-0.123672396
254	0xbecb6298	-0.3972366
255	0x3dee1ca4	0.116265565

l1.bias f4 [8]
0	0x3ed9d8b3	0.4254814
1	0x3f59b820	0.8504658
2	0x3f349869	0.7054506
3	0x3f1af776	0.60533845
4	0x3f110b52	0.566579
5	0x3f65cd65	0.8976653
6	0x3f08d47d	0.5344923
7	0x3eee3b22	0.4652949

l2.weight f4 [8, 8]
0	0xbf23d1f4	-0.6399224
1	0x3fb43996	1.4080074
2	0x400f41a5	2.2383816
3	0x3febe906	1.8430488
4	0xbf93777e	-1.1520841
5	0xbe1d9d37	-0.15392004
6	0xbf04f779	-0.51940113
7	0x3fb079a6	1.3787124
8	0xbfeff666	-1.874707
9	0x3f914dc5	1.1351858
10	0x3ec82bd5	0.3909594
11	0x3f462e11	0.7741404
12	0x40075084	2.1142893
13	0x404c5f8d	3.193332
14	0x3f582fdd	0.84448034
15	0xbfa62566	-1.2980163
16	0xbe1392bf	-0.14411448
17	0xbeb2b930	-0.34906912
18	0xbe8c31b4	-0.2738167
19	0x3e9cf8c1	0.30658534
20	0xbeb1a68d	-0.3469738
21	0x3e156e56	0.14592871
22	0xbd56a230	-0.052400768
23	0xbd900ca8	-0.07033664
24	0x3f1ba72b	0.60801953
25	0x40159774	2.337369
26	0xbfdde03d	-1.7334057
27	0xbe4d0c57	-0.20024239
28	0x3d80dc24	0.062919885
29	0x3fdbbdd4	1.7167306
30	0xbff638a7	-1.9236039
31	0x3f820849	1.0158778
32	0x3bd93d50	0.0066296235
33	0x3f36affa	0.7136227
34	0x3e868587	0.26273748
35	0x3fde7cb5	1.7381808
36	0xbfe54f62	-1.7914851
37	0xbefec39c	-0.49758613
38	0x3fd78f02	1.6840518
39	0x3ffd562c	1.9791923
40	0xbd9d7bb9	-0.07689614
41	0x3e8743b2	0.26418835
42	0x3cc0cc90	0.023535043
43	0xbe871c1c	-0.26388633
44	0xbe5b202e	-0.21398994
45	0xbe73e454	-0.23817569
46	0xbd49954f	-0.049214657
47	0xbe8029bf	-0.2503185
48	0xbeb0780c	-0.34466588
49	0xbe36042e	-0.17775032
50	0xbeae98ad	-0.34100857
51	0x3e5113ca	0.20417705
52	0xbe550950	-0.20804334
53	0xbd460440	-0.048343897
54	0xbe1337aa	-0.14376703
55	0x3d659890	0.056053698
56	0x400ff599	2.249365
57	0x3fc14b64	1.5101132
58	0xbfc995e5	-1.5748869
59	0x3fc769a3	1.5579113
60	0x3f208400	0.62701416
61	0xbe69f456	-0.22847113
62	0x3fb55928	1.4167833
63	0xbf8f49d8	-1.119441

l2.bias f4 [8]
0	0x3e40aaa3	0.18815093
1	0x3f197a74	0.59952474
2	0xbeb4eec2	-0.35338408
3	0x3f4407a0	0.76574135
4	0xbe8fa7ac	-0.2805761
5	0xbe9dbfb8	-0.30810332
6	0xbea9a1ec	-0.3313135
7	0xbe3001e7	-0.17188226

l3.weight f4 [23, 8]
0	0xbf2c0412	-0.6719371
1	0x3ec35a50	0.3815484
2	0x3e440a92	0.19144657
3	0xbd728e2b	-0.059217613
4	0xbf4473fb	-0.7673947
5	0x3e846e7c	0.25865543
6	0x3e3f3e76	0.1867617
7	0x3d8a8b74	0.0676488
8	0x3ed16f3b	0.40905175
9	0xbf35e709	-0.71055657
10	0x3e939903	0.28827676
11	0x3f195348	0.598927
12	0xbeafb76f	-0.34319636
13	0xbd25b928	-0.040459782
14	0x3e7d9d9e	0.24767157
15	0xbf06d94d	-0.52675325
16	0x3b6014ec	0.0034192158
17	0x3ec1b4fa	0.37833387
18	0xbe8f6a07	-0.2801058
19	0x3f08efff	0.53491205
20	0xbfae8de4	-1.3637052
21	0x3db0cb5a	0.08632536
22	0x3e6cf076	0.23138604
23	0xbf473d3c	-0.7782781
24	0x3ecfb553	0.40568027
25	0x3f0140ef	0.50489706
26	0x3c324f80	0.010883212
27	0xc0289b20	-2.634468
28	0xbcad1e5d	-0.021132642
29	0xbe85f048	-0.26159883
30	0x3d2b4800	0.04181671
31	0xbfa38958	-1.2776289
32	0x3e593f08	0.21215451
33	0xc0096e05	-2.14734
34	0x3e9a8021	0.3017588
35	0x3f54500c	0.8293464
36	0x3f01db10	0.5072489
37	0xbe77a15c	-0.24182647
38	0x3db4ead0	0.088338494
39	0xbfe22e14	-1.7670312
40	0x3e5bd72a	0.21468797
41	0xc024bd5c	-2.5740576
42	0x3e6ad67e	0.22933385
43	0x3f15a364	0.5845244
44	0xbde6942d	-0.11258731
45	0xbea25995	-0.3170897
46	0xbc3ed2e0	-0.011646956
47	0x3e1db658	0.1540159
48	0xbd480623	-0.048833977
49	0x3e025651	0.1272824
50	0xbe00cedd	-0.12578912
51	0x3eecc4e7	0.46243975
52	0xc018d23e	-2.3878322
53	0x3e6e2e1c	0.23259777
54	0xbe153709	-0.14571775
55	0x3dfe81b4	0.12427083
56	0x3f204f86	0.62621343
57	0xbf93d899	-1.1550475
58	0x3da76ebc	0.08175418
59	0xbf24b112	-0.6433269
60	0x3f1159ef	0.5677785
61	0xbd984080	-0.074341774
62	0x3c9f0230	0.019410223
63	0xbf61995f	-0.8812465
64	0x3f8d9353	1.1060585
65	0xbfdbd7c2	-1.7175219
66	0x3d2b5b10	0.04183489
67	0xbffd833b	-1.9805673
68	0x3f421605	0.7581485
69	0xbe0794ab	-0.13240306
70	0x3e4fa74e	0.20278665
71	0xc02b320d	-2.6749299
72	0xbfcd19f8	-1.602355
73	0xc019e255	-2.4044392
74	0x3d4a31b8	0.04936382
75	0x3ee57e96	0.4482314
76	0xbe49ff6f	-0.19726346
77	0x3d3fb437	0.046802726
78	0xbdb3d4c4	-0.08780816
79	0x3f36a931	0.71351916
80	0xbf913bf1	-1.1346418
81	0x3f414d53	0.7550861
82	0xbd706ef0	-0.05869955
83	0x3f5ee199	0.87062985
84	0xc011dd2e	-2.2791247
85	0xbe83a7d6	-0.25713986
86	0x3e9021f9	0.2815092
87	0xc0460fd2	-3.0947156
88	0xc0417aa8	-3.0231113
89	0x3f1f8450	0.6231127
90	0x3e420562	0.18947366
91	0xc00a8f72	-2.1650052
92	0xbf12a3df	-0.572813
93	0x3e4a93d6	0.19782957
94	0xbeb1ca3a	-0.347246
95	0x3f299ad8	0.662519
96	0xbfd24adb	-1.6429094
97	0xbf80f872	-1.007582
98	0xbe3ca422	-0.18421987
99	0x3f8e6437	1.1124333
100	0xc0034207	-2.050905
101	0x3ddf64fe	0.109079346
102	0x3e5680fe	0.20947644
103	0x3f1d8cea	0.6154314
104	0x3f0b1cbc	0.5434072
105	0x3f95e3d7	1.1710156
106	0xbab63100	-0.0013900101
107	0xc003465a	-2.051169
108	0xc0181590	-2.376316
109	0xbe5b0156	-0.21387228
110	0x3e316e5a	0.17327252
111	0xc0383654	-2.878316
112	0x3e5369e6	0.20645866
113	0x3e41f5c6	0.18941411
114	0xbd1635a0	-0.036672235
115	0xbf078b2e	-0.52946746
116	0x3f1e8663	0.6192381
117	0x3d6395d8	0.055562824
118	0xbde21ffc	-0.11041257
119	0xc03b4533	-2.9260986
120	0xc007183e	-2.1108546
121	0xbfede93f	-1.8586806
122	0xbcfeef10	-0.031119853
123	0xc01042f0	-2.2540855
124	0xbdcb0108	-0.09912306
125	0x3cd69070	0.02619192
126	0x3e98a18d	0.29810753
127	0x3f80865e	1.0041006
128	0xbf6cb76e	-0.9246739
129	0x3f8c4b6a	1.0960515
130	0x3d964788	0.07337862
131	0xbf821c6c	-1.0164924
132	0xbfbafd21	-1.4608499
133	0xbe94c202	-0.29054266
134	0xbe3a4c46	-0.18193159
135	0xbf10d261	-0.5657101
136	0xbf17169a	-0.5901886
137	0xbf18af43	-0.5964243
138	0x3e3524fe	0.17689893
139	0xbe9ede2a	-0.31028873
140	0x3e7804ca	0.24220577
141	0xbd440491	-0.047855917
142	0xbe922dee	-0.28550667
143	0x3ea0d729	0.31414154
144	0x3c46ee58	0.0121417865
145	0xc0170fae	-2.360332
146	0x3d996d38	0.07491535
147	0xbf48dc4b	-0.7846114
148	0x3ef11d87	0.4709284
149	0xbe54f65a	-0.207971
150	0xbb1ce680	-0.00239411
151	0x3e800e6a	0.25010997
152	0xbf7e7d46	-0.994099
153	0x3ebb047c	0.3652686
154	0xbe755fcf	-0.2396233
155	0xbfb43468	-1.4078493
156	0x3c1ee249	0.009697505
157	0xbc59e824	-0.013299976
158	0xbd8c0684	-0.0683718
159	0x3e296676	0.16542992
160	0x3da416db	0.08012172
161	0xbe85a8bb	-0.26105294
162	0xbea42fa2	-0.3206759
163	0xc0293123	-2.643624
164	0x3f0b48bc	0.5440786
165	0xbe28cdd0	-0.16484761
166	0xbdedcad2	-0.116109505
167	0xbefefe91	-0.49803594
168	0x3e31f968	0.17380297
169	0x3daa8cd1	0.0832764
170	0xbe8b566c	-0.27214372
171	0xbea4ec05	-0.3221132
172	0xbd4d17df	-0.050071593
173	0x3e480dfb	0.19536583
174	0xbe3d0203	-0.18457799
175	0xbf2b0fe3	-0.66821116
176	0xc006c65f	-2.1058576
177	0x3ec59d41	0.38596538
178	0xbeb15352	-0.3463388
179	0x3f44648e	0.76715934
180	0xbfe80750	-1.8127232
181	0x3ce44e18	0.02786927
182	0x3dfe285c	0.12410042
183	0xbef29f53	-0.4738718

l3.bias f4 [23]
0	0xbf3c3b87	-0.7352833
1	0xbe13af2c	-0.14422292
2	0x3e819e7b	0.25316224
3	0xbe2f5534	-0.17122346
4	0x3f21c072	0.63184273
5	0x3f05e5fa	0.5230404
6	0xbf680034	-0.9062531
7	0xbe8b5e33	-0.27220306
8	0x3f0e377c	0.5555341
9	0xbdac7e49	-0.084225245
10	0x3f1abc60	0.6044369
11	0x3f3d3675	0.7391122
12	0x3f713759	0.9422508
13	0x3f3a91e6	0.72878873
14	0x3f437465	0.7634948
15	0x3e9ab689	0.30217388
16	0x3eca252d	0.39481488
17	0xbe564789	-0.20925726
18	0xbee380e3	-0.4443427
19	0xbeb9e9d2	-0.36311203
20	0xbf1f427e	-0.62210834
21	0xbf664a88	-0.89957476
22	0xbf14b38e	-0.5808648
