data/data.pth (torch, 15665 bytes, 6 tensors)

l1.weight f4 [8, 252]
000000 b2 e6 52 3e 30 44 af be 58 f9 b6 bd 44 bf d5 3e
       0.20595816 -0.3423171 -0.08934277 0.41747487
000010 ec 4f be be cb 08 d3 be 39 5b 86 3e cb d3 c7 be
       -0.3717035 -0.41217646 0.26241472 -0.39028773
000020 6a 70 b2 be f6 14 81 3e 13 f4 3b 3f a2 b9 f3 3e
       -0.3485139 0.25211304 0.734193 0.47602564
000030 97 16 9f be 48 e4 9e be e1 3e 4c bf 4b b7 93 be
       -0.31071922 -0.3103354 -0.79783446 -0.2885078
000040 7d 71 55 3f 8e ed b9 3e 1e 7b 87 3e b6 76 7c be
       0.83376294 0.36314052 0.26461118 -0.2465466
000050 1a 78 4f be 9f c8 98 be 0d e5 18 3e 2e e5 cd 3e
       -0.20260659 -0.29840562 0.14931126 0.40213913
000060 a4 11 59 3e e3 d8 e1 bc c8 05 f4 3d a8 6c 1e 3c
       0.21198136 -0.02756924 0.11915165 0.00966946
000070 d1 39 a1 3e 74 9a c5 be 30 b7 06 3f 1c d1 05 bf
       0.31489423 -0.385944 0.5262327 -0.522722
000080 c1 05 06 3e c4 62 aa be fa 6f 16 bd 7d df 7c be
       0.13088132 -0.33278477 -0.036727883 -0.24694629
000090 1f 80 39 bf 73 99 82 be 87 15 45 be 45 6e 10 3f
       -0.7246112 -0.25507697 -0.19246493 0.5641826
0000a0 b9 88 ca 3d ba c4 96 be 20 03 37 3f ce 73 a9 3d
       0.09889359 -0.29446965 0.71489143 0.08274041
0000b0 95 8c c3 3e c9 ef e5 3d fa c0 be be 43 69 20 3e
       0.38193193 0.11227376 -0.37256604 0.15665154
0000c0 d2 c8 90 3e 89 1c dc 3d 02 e8 9a 3e f9 7f 99 bd
       0.28278214 0.1074763 0.30255133 -0.07495112
0000d0 29 17 3a be aa 46 0c 3f bc ca f7 ba f6 cf 1d bc
       -0.18172897 0.54795325 -0.0018905024 -0.009632101
0000e0 ef 06 0b bf 61 32 93 be 7c d3 6f bf cb 5e a5 bd
       -0.54307455 -0.28749374 -0.93682075 -0.08074721
0000f0 0c 13 4f be 87 67 82 be 83 93 de be 6f 03 8f be
       -0.2022211 -0.2546961 -0.43471918 -0.27932307
000100 95 5a 08 bf 8a 5e 1f 3f 1a b6 d5 be 75 61 67 be
       -0.5326322 0.6225363 -0.41740495 -0.2259577
000110 95 dd 68 3f 59 66 97 3c ea 33 2b bd ca e2 1b 3c
       0.9096311 0.01848142 -0.041797556 0.00951452
000120 dd 6c 9f 3e 95 4b 45 3f 04 f2 d7 3e b9 84 5e 3d
       0.31137744 0.77068454 0.4217683 0.054325793
000130 b9 8c 49 bf c4 88 87 be bc 78 a8 bd 6d da 65 be
       -0.7873035 -0.2647153 -0.08226153 -0.22446604
000140 e7 33 c5 be 0b 8f 83 be c6 a7 c3 be 6b 99 29 3e
       -0.3851616 -0.2569507 -0.38213938 0.1656243
000150 97 70 ee 3e 03 36 4f 3f 17 31 16 bd 9a 34 7e 3f
       0.46570274 0.8094179 -0.03666791 0.99299014
000160 67 1f 5f 3e 0f bd 83 be f2 48 a2 be ee 8b 6d 3e
       0.21789323 -0.25730178 -0.31696278 0.2319791
000170 f6 d4 5a be 0d d9 0e 3f 47 f7 2b 3e 79 04 5e be
       -0.213703 0.55799943 0.16793548 -0.21681394
000180 9d 4c b4 bd 07 d9 84 3e 89 5f 74 be 74 db f8 be
       -0.08803675 0.2594683 -0.23864569 -0.4860493
000190 ae cc a5 be 92 da ec 3e 5f c9 d3 3e cb f6 a1 3e
       -0.3238272 0.46260506 0.4136457 0.316336
0001a0 32 9e 94 bd 82 85 74 be 1c 35 13 bc 39 e3 f9 be
       -0.07256736 -0.23879054 -0.00898483 -0.4880617
0001b0 2b 46 32 be b3 6d dc 3e 83 bd ab bd 06 a8 e3 3e
       -0.1740958 0.43052444 -0.08385756 0.4446413
0001c0 c8 52 e4 3e 13 a5 ea 3e 0f 54 41 3c df 22 70 3d
       0.44594407 0.45829067 0.011799826 0.058627006
0001d0 d0 a1 25 3d 41 50 ae bd 00 9c ed be 6b fb 42 3e
       0.04043752 -0.08511401 -0.4640808 0.19041221
0001e0 c5 6e d4 be 67 fd 8e 3e 71 e7 f5 bd 4c 6f a0 3d
       -0.4149076 0.27927706 -0.120070346 0.07833728
0001f0 03 52 08 3e fc 58 24 3d 9e cf 4a be 12 b1 55 3a
       0.13312535 0.040123925 -0.19805762 0.00081516907
000200 43 dc e6 b6 62 df 7f be 12 73 de be 28 2e bc 3e
       -6.880176e-06 -0.24987558 -0.43447167 0.36753964
000210 94 78 96 bd 7d 07 25 be 07 28 a7 3e 09 9b 6a bd
       -0.07347217 -0.16116138 0.32647726 -0.05727676
000220 83 11 38 be 39 5e 3b bd 61 72 36 3f a1 bd 2d bf
       -0.1797543 -0.045744155 0.7126828 -0.67867476
000230 fe 97 1c 3f 5c 0c d7 bd f4 e8 31 be ad 4f 16 3d
       0.6116942 -0.10500404 -0.17374021 0.03669708
000240 36 c4 47 3e 46 cf 51 be 23 aa 7a bd 05 56 36 3e
       0.19508442 -0.20489225 -0.06119741 0.17806251
000250 bf 47 c2 3e fe 3e c9 be 7f c7 9d 3e 0f 09 e9 3b
       0.37945363 -0.39305872 0.30816266 0.0071116756
000260 6b 7a 55 be e8 0a 23 be 54 b1 41 be 57 9c 7e bd
       -0.2084748 -0.15922129 -0.18915302 -0.062160816
000270 19 de e5 be 18 c2 a2 be 28 ba a0 3e 47 5b 04 3f
       -0.4489601 -0.31788707 0.31392026 0.5170178
000280 fd ac a3 be e1 27 ec 3e 3d a9 f5 3e ea 31 0c 3f
       -0.31967917 0.46124175 0.4798068 0.5476366
000290 99 bd 7f be 5e 23 18 bf 9f 71 1d 3f 32 c0 1c 3f
       -0.2497467 -0.59428966 0.615015 0.61230767
0002a0 27 93 e0 be d4 31 8f be 1b 54 4f 3e 3b b2 0a 3f
       -0.43862268 -0.27967703 0.20246927 0.5417821
0002b0 9a 4b 5e 3e 67 7a c1 be 00 62 d0 bc e9 05 e9 3e
       0.21708527 -0.37788698 -0.025437355 0.45512322
0002c0 7a 5e a9 be 1e 20 25 3e 55 a8 1c be 53 26 c1 bd
       -0.33079892 0.16125533 -0.15298589 -0.09431138
0002d0 48 5c 02 bd c6 62 cf 3e 9b 79 28 be 7b 4a d5 bd
       -0.031826288 0.40505046 -0.16452639 -0.10414597
0002e0 98 17 db be 51 49 16 3f 74 d9 4a bc f3 67 b7 be
       -0.42791438 0.5870562 -0.012380946 -0.35821494
0002f0 83 b7 06 3d 15 e8 7d be 80 f6 0d 3f a5 5c 15 be
       0.032889854 -0.24795564 0.55454254 -0.14586122
000300 63 b0 3b 3d b6 7d d2 3e 1a 32 e2 3e 73 ac 08 3e
       0.045822512 0.41111535 0.4417885 0.13347034
000310 dc db 8a be 90 1d 70 bc 1f f7 88 be 83 9d 8e 3f
       -0.27120864 -0.014655486 -0.26751038 1.1141819
000320 6d 63 22 be 9a 00 82 3e 77 d0 c9 bd 5b de 50 bf
       -0.1585824 0.25391084 -0.09854215 -0.8158929
000330 a3 c9 3a bd 6b 71 0b 3f 54 ff 2a 3f 58 e9 bc be
       -0.045602452 0.5446994 0.6679585 -0.36896777
000340 cb 0c 51 bd a1 5a c9 be d6 95 52 bd 2a 83 35 3e
       -0.05103759 -0.39326957 -0.051412426 0.17725816
000350 b4 42 86 be 6e e3 69 3e 10 f2 12 bf b8 e9 45 3f
       -0.26222765 0.22840664 -0.5740061 0.7730975
000360 e3 2a d0 be 1a 84 a4 be ef 23 51 3f b4 3f 42 be
       -0.4065772 -0.32132035 0.81695455 -0.18969613
000370 b5 ee 92 bc 96 ea 99 3e b8 91 1c bf de 2a a5 3e
       -0.01793609 0.30061787 -0.6115985 0.32259268
000380 b3 8d 7d 3e 94 5c d5 be 65 96 03 bd 50 98 87 be
       0.24761085 -0.41672194 -0.03212585 -0.26483393
000390 84 91 1a 3e 7c bf eb 3c e0 d6 53 bd f4 5c d5 3e
       0.15094572 0.02877783 -0.051718593 0.4167248
0003a0 04 8d 1f be 59 e5 bd be d2 15 9b bd 5b 2e a6 be
       -0.15581137 -0.3708904 -0.07572521 -0.3245724
0003b0 56 b3 24 be 06 ab 68 3e 9c 28 93 bd 96 ad 3b 3f
       -0.16084036 0.2272149 -0.0718548 0.73311746
0003c0 a0 c4 aa 3e e3 8a 7c 3e b4 69 81 be 7f cc b5 be
       0.33353138 0.24662356 -0.25275958 -0.3550758
0003d0 2b f6 9b 3e 0e 46 9a bd c7 f1 37 3d cf 9c 8e be
       0.3046125 -0.07532893 0.04490831 -0.2785401
0003e0 bd 85 06 bf b5 bc f3 3e 26 ac 21 3e fd 63 d2 be
       -0.5254782 0.4760491 0.15788326 -0.4109191
0003f0 ec f5 53 3d 06 c2 e0 3e cc 14 8e 3e c2 a0 a4 bd
       0.0517482 0.43898028 0.27750242 -0.080384746

l1.bias f4 [8]
000000 4f e0 65 3f 83 f7 4a 3f 96 3e 9b 3f d6 ed 40 3f
       0.8979539 0.7928392 1.2128475 0.7536291
000010 3e 4b 13 3f a5 ab 02 3f e2 e1 2b 3f 37 28 5b 3f
       0.57536685 0.5104316 0.67141545 0.8560824

l2.weight f4 [8, 8]
000000 b9 6e 36 be 4b 1f 86 3d 8b 8f a8 be c1 2c 27 be
       -0.17815675 0.065489374 -0.32922015 -0.16325666
000010 c0 9e 45 3e f1 c2 7e 3e a8 b9 8c be a0 0d 7e be
       0.1929884 0.24879052 -0.27485394 -0.24809885
000020 4d 2e 32 bf a3 9e 50 3e db bc db 3f 65 c8 90 3f
       -0.696019 0.20373015 1.7167009 1.1311156
000030 2c 40 05 bf 1d 0f 2e 3e 6f 5a 44 bf 50 f2 72 bf
       -0.52051044 0.16997953 -0.7670049 -0.9490099
000040 19 48 01 3d 76 79 65 be 99 69 6e 3f 57 17 3c 3f
       0.0315629 -0.22409615 0.9312988 0.73473114
000050 33 59 9c 3f d8 1a 20 bf 09 ea 81 3d 03 b3 5c bf
       1.2214721 -0.6254096 0.06343467 -0.8621065
000060 1c f9 fc 3f db f0 08 bf 73 f9 ae 3f ee 6a 3f be
       1.9763522 -0.53492516 1.3669876 -0.18693134
000070 2f 68 25 3f cd c3 58 bf c0 7e 32 bf df 7c 95 3f
       0.64612097 -0.8467377 -0.69724655 1.1678733
000080 e0 ca 7d 3f d3 02 be 3f 2a fa 75 3f 06 1b 40 bf
       0.9913769 1.4844612 0.96084845 -0.75041234
000090 d8 b6 c7 bd 74 2d ad bf ea 87 2d bf 57 2c c7 3f
       -0.097516716 -1.3529496 -0.67785513 1.5560406
0000a0 49 c5 2a be 67 83 48 3e ce 35 39 3f 3d cb 81 3e
       -0.16676821 0.19581376 0.72347724 0.2535037
0000b0 86 d5 51 bf d5 ee 59 3f ef cb cb bf 00 58 b0 3f
       -0.81966436 0.85130054 -1.592161 1.3776855
0000c0 e2 4a c9 bf 7f bc 08 40 ec f9 75 3f 34 9d d1 3e
       -1.5725977 2.136505 0.96084476 0.4094025
0000d0 db 6d d8 bf f8 ea 7b be a0 4d 81 3f c6 83 a2 3f
       -1.6908525 -0.24601352 1.0101814 1.2696464
0000e0 fc db 4a 3f 15 75 32 bf 60 98 9f 3e 0d c2 05 40
       0.7924192 -0.69709903 0.3117094 2.089969
0000f0 e8 48 e9 3f ad 67 13 40 ff 42 04 40 89 ce 38 3f
       1.8225374 2.3032029 2.066589 0.7219015

l2.bias f4 [8]
000000 f2 df 8a be 11 e0 ef 3e fb 83 4a be 1b 77 33 3f
       -0.27123982 0.46850637 -0.19776909 0.70103616
000010 0c d4 e6 3e f7 57 05 bf a4 71 54 3f d8 14 33 bd
       0.45083654 -0.5208735 0.829859 -0.04372105

l3.weight f4 [20, 8]
000000 b7 2c a7 be 31 43 fd be e0 a5 8b 3e b7 c3 4d 3f
       -0.32651302 -0.49465325 0.2727499 0.8037676
000010 b4 77 65 bf ee 70 f6 bf b0 a1 e6 bf 64 e4 3c 3e
       -0.8963578 -1.9253213 -1.8018093 0.18446499
000020 40 68 8a 3e f4 bd d3 3c 79 11 ce bd 55 97 00 bd
       0.2703266 0.025847413 -0.100619264 -0.03139432
000030 da 57 00 3e 71 76 6b bf ac b1 af 3e 01 ce 01 bf
       0.12533513 -0.919776 0.3431524 -0.5070496
000040 4d 30 9f be 86 4c 8c 3f 29 1a 34 3f 88 25 78 bd
       -0.31091538 1.0960853 0.7035242 -0.060582668
000050 13 09 0e bf 99 f3 5d bd 1b 93 c4 bd 33 fe 57 bf
       -0.55482596 -0.05418739 -0.09598371 -0.8437225
000060 8b 99 0e 3e b9 31 fc bf df 45 8c bf 31 b0 b8 bf
       0.1392576 -1.9702674 -1.0958823 -1.4428769
000070 1f f3 19 c0 5c cb d4 bf e9 3c 17 3e 01 dd 29 3f
       -2.405464 -1.662456 0.14769329 0.6635285
000080 0e 28 f3 3d 7f 43 3e 3f f6 d3 1d bf 76 39 ae bf
       0.11872874 0.7432174 -0.6165155 -1.3611286
000090 e1 31 f0 bf f4 51 42 bf 82 d1 a8 3e 3d a6 90 3c
       -1.8765222 -0.759063 0.32972342 0.017657394
0000a0 a5 85 a9 3d 8d bf f9 3c d4 a2 30 bf ef 61 b3 3e
       0.08277444 0.030486846 -0.68998456 0.35035655
0000b0 15 6f 1d bf fd d0 5a bd f8 8c cf be ac ed a5 bb
       -0.6149762 -0.053421963 -0.40537238 -0.005063733
0000c0 cc 6d 39 bd 9b c5 01 be f8 fb f3 bf 64 b9 04 c0
       -0.045270726 -0.12673037 -1.906127 -2.0738153
0000d0 29 03 8d be 30 f4 90 be 08 f0 42 3f e2 39 ac be
       -0.27541474 -0.283113 0.7614751 -0.3363791
0000e0 1c a2 97 3d 8c 67 ef bf 38 20 13 c0 09 f8 95 be
       0.07403967 -1.8703475 -2.2988415 -0.29290798
0000f0 bb 24 27 3f 4b e8 a2 bf 5b 6e 82 3f f2 dc ac bf
       0.6529042 -1.272714 1.0189928 -1.3504927
000100 ae 14 45 3e a3 55 8e bd 13 42 f6 bf a8 c4 63 be
       0.1924617 -0.06949928 -1.9238914 -0.22242987
000110 bc d6 04 3f 43 b4 71 3f d2 12 f7 3e b9 34 dc bf
       0.5189016 0.9441568 0.48256546 -1.720359
000120 c8 86 53 be ba 35 34 3f ae 03 35 3f b4 53 41 3f
       -0.20656884 0.7039448 0.7070874 0.75518346
000130 f9 ac f5 3e 13 65 05 c0 12 f4 b6 bf 63 6a 38 bf
       0.4798353 -2.084294 -1.4293234 -0.72037333
000140 1a 3a 66 3e 69 80 c6 bf ba 7f bb be d6 e8 16 3f
       0.22483101 -1.5507938 -0.36620885 0.5894903
000150 ea 9d c3 3e cc 34 c3 bc c0 a3 5e bf f8 6c 86 be
       0.38206416 -0.023828886 -0.8696861 -0.26255012
000160 3c c1 a0 3e bd 8d ea be c9 5e 91 bf 53 cb 19 3f
       0.31397426 -0.45811263 -1.1357051 0.60075873
000170 c3 f4 2f 3f db c2 a4 3e e2 88 dc bd 24 cb 8c bf
       0.6873285 0.32179913 -0.10768296 -1.0999494
000180 cd 9e 8e 3e 60 ab 09 c0 f0 d3 06 c0 ef df 38 3f
       0.2785553 -2.151085 -2.1066856 0.72216696
000190 de 53 c8 3c d4 74 24 c0 d7 17 0d bd 63 09 63 3d
       0.024454053 -2.5696306 -0.034446564 0.055428874
0001a0 49 eb 78 3e a4 b3 5a 3f 91 96 e5 3c 71 12 a3 3e
       0.24308504 0.8543036 0.028025897 0.31850007
0001b0 01 b1 a4 3e 40 fa d6 bd 2d a4 55 3e bc 32 01 c0
       0.32166293 -0.1049695 0.2086341 -2.0187216
0001c0 37 70 00 be 98 c9 68 3e a9 0e b2 be ff 92 16 3e
       -0.12542807 0.22733152 -0.3477681 0.14704512
0001d0 19 76 c8 bf 5d 60 4b be a8 95 01 c0 94 a2 75 3e
       -1.566104 -0.19860978 -2.0247593 0.239878
0001e0 a5 cb bd 3d 30 46 0b c0 39 b4 f9 bf d8 f8 bd bf
       0.09267358 -2.176159 -1.9508125 -1.4841566
0001f0 aa 7f b8 bc 85 f7 de bf 50 55 e8 3e 57 d0 72 3e
       -0.022521812 -1.7419287 0.45377588 0.23712288
000200 0b 97 8d 3e 73 f5 2c c0 3a 9b 88 3e 8c e0 bf bd
       0.276543 -2.702481 0.26680928 -0.09369001
000210 5b d7 fa bf 58 ca 14 c0 85 0a 99 bf f8 8d 24 3f
       -1.9596971 -2.32485 -1.1956335 0.6427913
000220 b4 82 a1 3d 88 29 80 bf 44 7b 03 3f b9 15 0b c0
       0.07886258 -1.0012674 0.51359963 -2.1732008
000230 72 93 a1 bf 3f 3f be bf dd 7a ca bf 2e 8a 3b 3f
       -1.2623122 -1.4863051 -1.5818745 0.7325772
000240 0c 28 9e be 83 6d cd 3e 84 e9 02 3f cf a4 60 bf
       -0.30889928 0.40122613 0.51137567 -0.8775148
000250 f6 d5 c7 bf 04 a6 1b c0 e2 56 1d bf 79 bb 94 3e
       -1.5612171 -2.4320078 -0.614607 0.2904928
000260 bb c4 e8 bc 33 32 32 3e 58 fe ed bf 5a f1 b9 be
       -0.02841412 0.17401962 -1.8593245 -0.3631695
000270 aa 95 77 be e0 a5 e5 3e f3 ea 2c 3e bd d7 ab be
       -0.24178186 0.44853115 0.16886501 -0.33563033

l3.bias f4 [20]
000000 c4 05 b7 be e6 07 4b 3e 6a c4 a9 3d 12 1c 31 3f
       -0.35746586 0.19827232 0.08289416 0.69183457
000010 56 74 eb bd 2f 35 fc be d8 f0 e9 bc 63 90 49 3f
       -0.11496799 -0.49259326 -0.028557226 0.7873594
000020 66 0d bb be bf 50 cf 3e a9 a4 c4 be 76 71 bf 3d
       -0.3653366 0.40491292 -0.38406876 0.09347813
000030 7d ad c9 3e d3 19 c3 3d b4 00 d9 3e 58 e2 19 3e
       0.39390174 0.0952641 0.4238335 0.1502775
000040 fd 4a 87 3c 7d cf fc bd 46 7c e1 bd 31 b7 3f bf
       0.01651525 -0.12344263 -0.110100314 -0.748889
